checkpoint.pth (torch_old, 54517 bytes, 6 tensors)

fc1.weight f4 [128, 37]
00000000: 7b9f 7c3c 995a 4b3e 2eb8 48be f990 86be
00000010: ef84 c6bc 6c86 a33d d22a 2bbe 4a08 243e
00000020: 2e27 68bb 5aed 33be 9ee9 62be d363 d93d
00000030: dcf6 50be 547c b3be b821 30be 9df9 353c
00000040: a176 08bd 04ef 693e f50d 8bbd 78cd 0abe
00000050: 34c9 a4bd fd16 fc3d 76ae f3bc 78cd 7c3e
00000060: a66a fabe 2133 7b3d f80e aeba 0349 f5be
00000070: bcb1 ff3d 2c23 b0bd cf9e 50bd 6798 673e
00000080: 82f7 abbe 5419 7bbe 626b e6be 2972 eb3d
00000090: 081d 9dbd 0f2b 0b3e 4c24 da3d 36f9 153d
000000a0: e2b0 103b 0945 8cbd b474 2bbd 5f4d 58be
000000b0: f32a d5bc fa9e 143e 0020 993e be1c 3ebd
000000c0: 509a 7a3d 5b47 f63b dcd4 933d d3dc 96bc
000000d0: 66e3 463e 3d23 babd 3afe 3abd c334 2abe
000000e0: f879 63bf 3c20 8dbe 0618 f6bd 5212 a23c
000000f0: 5419 ce3d 9eb9 2ebe 3f3a 32bd 3a0f 7bbe
00000100: 452b 283e 3249 d73d 9a3b c7ba e730 15be
00000110: 80df 7f3e a8e0 e63d b455 68bd 4dbb b2be
00000120: a0c0 eb3b e977 843a 8753 ec3d 4b19 9fbd
00000130: 4f15 8b3d e11b a6bd 125d 8cbd 2fc3 8dbe
00000140: d821 0bbf 5dd2 8e3e 59ca 263e 0310 01bf
00000150: 03cd 47bd 6977 0d3e 6240 37be 41d6 ddbe
00000160: 598f 4c3e 7b96 06bc 31f3 313d a0db 8f3b
00000170: f5e8 1b3d d58a 813e e799 1dbe 9a96 80be
00000180: 2df6 043e 1393 3b3c 05e5 b8be 59ed efbd
00000190: 3324 313e f466 293e 33cd 0ebf 5633 08bd
000001a0: 6622 48be 3dbd 83be 83af 75bd a183 56be
000001b0: f048 223e e4ad a13d 3a3b 7bbd 4f63 113e
000001c0: 32a0 4cbe 95ef 033e 4fed 16bd 6970 e7bd
000001d0: 80ac 0cbc e8d2 1bbe 3bac c43d 282b 51be
000001e0: 11dd b03d efb6 2f3e 3d2a afbe 7901 e5bd
000001f0: 8255 17bf 8327 0bbf c6dd 843b ab5b 9abe
00000200: a6bc ebbe 1e08 843d c887 46be 87ad e1bd
00000210: bdae bb3d 7a43 543d 375e bbbd 014f 1c3e
00000220: f13b 43bc 56b7 303e bb9d 7ebe e215 803d
00000230: cdcc 843e 5305 f83d 3655 203e cc5b eabd
00000240: d17a b7be 0645 84be f685 a73d 7c81 793c
00000250: 108e efbb a13c c2be 8e3b 16be dd23 b2be
00000260: 91a2 eabe 07e1 3dbe 4cd6 92be 476a 143e
00000270: d38f d8bd e1ee f9be e343 7bbe f95b 2f3d
00000280: 203d 09be a3a7 d2bc 3d83 fcbd 0f95 0cbf
00000290: a5dc 89be c4d0 773e 5d0a 7dbe 26c7 80bf
000002a0: 61d7 dbbe d48c a2bd 56b9 343e 8994 8cbd
000002b0: 4ba3 073d 4d34 04be 9379 5dbe d461 843e
000002c0: 1df2 dcbe a09c 30bf 779d 3d3e 28cf 3abe
000002d0: 3555 51bd de25 39be 8cf6 df3d 5570 0d3e
000002e0: d999 be3c 3b7e 17be 8c2e b6bd f715 34be
000002f0: f44c 263e 5a83 423e d3e9 06be 6f97 98be
00000300: 6088 963e c186 e93c a348 64be 7335 f5bc
00000310: cbde 06bf 9e94 1dbe 35d5 45bc 3bb3 3dbe
00000320: 0cd3 b53b d162 383e c7b8 90be eb55 1fbf
00000330: de14 14be 39db 4e3d a37c 2b3d 4aea 77bd
00000340: 51bd c33d 6d71 9bbe 231a 9a3d 0819 33be
00000350: 6d26 c0be 2f51 8ebd a4e4 2ebf d460 033d
00000360: f6e4 6abe 9b4c 07be e90d c23c 128a e0bd
00000370: 6f98 803d b5c6 033d 8947 0d3d fd75 1ebe
00000380: afe7 443d 7802 28bd 481b 70be 5c9e 0abf
00000390: 84e5 183d 44a9 803d 7de1 553e 2642 0c3e
000003a0: 0756 87bd 8c8e 253e 2fd9 103e 57a7 ee3b
000003b0: c46d ae3c ef90 3abe bc8e b0bd f58d bc3d
000003c0: 1832 c7bb ca54 9a3e 5471 02be a63b 043c
000003d0: a2a3 853d a763 81be 8483 213e de93 b8be
000003e0: 9589 0f3d f14e 883d 11d8 16be 2caa 643e
000003f0: 947a 05be b9b6 4a3e f284 0ebe c04d 573d
0.0154188825 0.19858779 -0.19601509 -0.2628248 -0.02423331 0.07984623 -0.16715553 0.16018787
-0.0035423744 -0.17571011 -0.2215943 0.10614743 -0.2040667 -0.35055792 -0.17200363 0.011106876
-0.03331626 0.22845083 -0.067897715 -0.13554943 -0.08046189 0.12309072 -0.029746275 0.24687755
-0.4890949 0.061328057 -0.0013279608 -0.47907266 0.12485072 -0.086004585 -0.0509327 0.2261673
-0.3358727 -0.2452138 -0.45003802 0.11496384 -0.07671553 0.13590644 0.10651454 0.03661462
0.0022078087 -0.06849105 -0.041859344 -0.21123265 -0.026021456 0.1451377 0.29907227 -0.04641413
0.06118232 0.0075158305 0.07218334 -0.018415844 0.19422683 -0.090887524 -0.045652606 -0.1662169
-0.88857985 -0.27563655 -0.12016301 0.019784126 0.10063425 -0.17062995 -0.04351258 -0.24517527
0.16422756 0.10512008 -0.0015200258 -0.14569436 0.24987602 0.112733185 -0.056722358 -0.34908524
0.0071945935 0.0010106537 0.11539369 -0.07768496 0.06791174 -0.08110786 -0.06853689 -0.27687976
-0.54348516 0.2789487 0.16288127 -0.50415057 -0.0487795 0.13815083 -0.17895654 -0.43327525
0.19976558 -0.008214588 0.043444816 0.004390195 0.038063962 0.25301233 -0.1539074 -0.251149
0.12984534 0.011448639 -0.36112228 -0.11715192 0.17298965 0.1654318 -0.5578186 -0.033252083
-0.19544372 -0.25730315 -0.059981834 -0.2094865 0.15848136 0.07894495 -0.06133578 0.1419804
-0.19982985 0.12884362 -0.03684741 -0.113007374 -0.008586049 -0.15217173 0.09603163 -0.20426619
0.08635915 0.17159627 -0.34211913 -0.111819215 -0.5911485 -0.54357165 0.0040547578 -0.30148062
-0.46042365 0.06446861 -0.19387734 -0.11019426 0.09164188 0.051822163 -0.091488294 0.15264513
-0.011916147 0.17257437 -0.24864857 0.06254174 0.259375 0.121103905 0.15657505 -0.1144329
-0.3583589 -0.2583391 0.08179848 0.015228625 -0.0073106363 -0.3793688 -0.14671156 -0.34792987
-0.45827153 -0.18542872 -0.2867912 0.14493667 -0.10574307 -0.48815063 -0.24537615 0.04281232
-0.13402224 -0.025714701 -0.12329719 -0.54914945 -0.2692615 0.24200732 -0.24710985 -1.0060775
-0.4293776 -0.07937017 0.17648825 -0.06864268 0.033114713 -0.12910576 -0.21628408 0.25855887
-0.43153468 -0.6898899 0.185171 -0.18243086 -0.05110665 -0.18080851 0.10935697 0.13812383
0.02326672 -0.14794247 -0.08895597 -0.17586504 0.16240293 0.18995419 -0.13175134 -0.29803035
0.2940092 0.028506638 -0.22293334 -0.029932713 -0.52683705 -0.15388724 -0.012074758 -0.18525402
0.0055488404 0.18006445 -0.28265974 -0.62240475 -0.14461085 0.050502036 0.04186691 -0.06052617
0.095575936 -0.30359975 0.075245164 -0.17490017 -0.37529317 -0.06949078 -0.6831763 0.032074764
-0.22938904 -0.13212816 0.023688274 -0.10963835 0.062790744 0.032171924 0.03449205 -0.15474696
0.048072513 -0.04101798 -0.23447907 -0.5414789 0.03732826 0.06282285 0.20886798 0.13697109
-0.06608205 0.16167659 0.14145349 0.007283132 0.021292575 -0.1821935 -0.086209744 0.09206764
-0.0060789697 0.30142814 -0.12738544 0.008070862 0.06525351 -0.2527134 0.15772825 -0.36050314
0.035043318 0.06655682 -0.1473086 0.2233054 -0.13035041 0.19796266 -0.13917902 0.052564383

fc1.bias f4 [128]
00000000: 5661 9fbd 4e6f ed3a 0959 ecbd 6e02 cdbd
00000010: aeaa ccbc c50a 44be 75ab 423d e118 973d
00000020: f250 81be d46b 923d 2ff2 fabd b0d8 37bd
00000030: 8b82 07be d538 4bbd 475b 53bd 8e74 bbbd
00000040: b684 b73c 3ae2 50bd b5ba e6bc 984a 37bd
00000050: 5a69 edbd 2dd0 6f3d 10aa 143e 0ea8 cf3b
00000060: b628 083e f3c1 be3d 5429 a43e b9fd 14be
00000070: 3427 9a3c c583 15bc 22b7 443e 84dd 313e
00000080: 150b fbbd 2a09 ed3c 2b94 173d a4af 17be
00000090: 787b d738 a5f8 243d 3224 0bbd 5d71 b7bd
000000a0: 5e26 d639 9ee3 403e ecc0 2e3e 8002 d03c
000000b0: 7c5b 113b 0580 39be b2f9 973d 8090 01be
000000c0: 8aaa f0bd ed4b ee3b 2f1a b5bc 9e85 963d
000000d0: e357 d63d f433 033e 4780 1f3d cbfd 683c
000000e0: 0972 0dbd 7276 debd 830c 6d3d b7e4 38bd
000000f0: 5752 0bbe ffec 41bd 2af8 513d 1830 ebbd
00000100: 8de1 b23d 5197 d4bc dcf1 5d3c 56f9 97bd
00000110: 6c47 0cbe 11a4 6fbd be4f 2eba 9838 95bd
00000120: b4c3 9f3d eee7 50be 5772 d5bd 16a6 69bd
00000130: b8ca 083e 532c fdbd 7a1c ee3c d415 ea3b
00000140: 0a20 17bd 3303 583c 25ae 293c d023 f2bd
00000150: a72a 85bd 09ee 223e b3aa be3d 3d81 f3bd
00000160: d2c3 133e 133b bf3d b8b4 a53d 9fbd 7bbd
00000170: 2a49 3dbe 3cef 65be 6e36 74bd 14f3 693d
00000180: 7019 81bd 173f 77be f2af 8fbd 86ea e43d
00000190: 6e79 0bbe 87e3 71be 55b9 de3d 3db3 703d
000001a0: fc6c 14be 9ea0 8bbe 605c a7bc 4c97 033e
000001b0: a51c 21be 4f03 583d 0b40 f03d afcd e0bc
000001c0: ebfa 3fbe c035 8fbd 0c20 b9bd 6829 0c3e
000001d0: 0182 bc3d f200 053e d900 5b3d acc0 a0bd
000001e0: a038 093e c807 9f3c fb4f debd 854b 5bbe
000001f0: 1038 a1bd c3e2 913d eea3 383e 3394 1fbe
-0.07782237 0.0018114836 -0.115404196 -0.10010229 -0.02498373 -0.19144733 0.047526795 0.07377792
-0.2525707 0.07149473 -0.12253224 -0.044884384 -0.13233392 -0.049614746 -0.05160072 -0.091530904
0.022402149 -0.050996996 -0.0281652 -0.044748873 -0.1159236 0.05854814 0.14517999 0.0063371724
0.1329678 0.09314337 0.3206278 -0.14549913 0.018817522 -0.009125655 0.19210485 0.17369658
-0.12257973 0.028935034 0.03700654 -0.14813095 0.00010274997 0.04027619 -0.033970065 -0.08957169
0.00040845847 0.18836829 0.17065781 0.025391817 0.0022179773 -0.18115242 0.074206725 -0.12652779
-0.11751278 0.0072722347 -0.022107212 0.07349704 0.10465982 0.12812787 0.038940694 0.014220665
-0.03453258 -0.108624354 0.05787326 -0.045139994 -0.13605629 -0.047345158 0.05126206 -0.114837825
0.08734427 -0.02595106 0.013546433 -0.07420604 -0.1369912 -0.058506075 -0.0006649456 -0.07286185
0.07800999 -0.20400974 -0.10422199 -0.057043158 0.13358581 -0.1236197 0.029066313 0.0071437154
-0.03689579 0.0131843565 0.010356461 -0.11823237 -0.06502276 0.15911116 0.09309902 -0.118898846
0.14430168 0.093374394 0.0809111 -0.061460134 -0.18484941 -0.22454542 -0.05962222 0.057116583
-0.0630368 -0.2414516 -0.07015981 0.11177544 -0.1362054 -0.23621951 0.10875193 0.058764685
-0.14494699 -0.2727098 -0.02042979 0.12850684 -0.15733583 0.05273753 0.11730965 -0.027441828
-0.18748061 -0.06992674 -0.090393156 0.1368767 0.09204484 0.12988642 0.053467605 -0.07849249
0.13400507 0.01941289 -0.10855099 -0.21415527 -0.07872021 0.071233295 0.18031284 -0.15583877

fc2.weight f4 [64, 128]
00000000: ec49 863c 0c37 97bd 1b5f 22be 5676 0abd
00000010: 28cc e73d 5ae8 533e a357 fabd de03 543d
00000020: 6785 503e fb1a f93d bac1 2bbe f1af 6dbe
00000030: 1e22 233e 6f1c 76bd 5d49 383e b06b 163d
00000040: 1aa3 fc3d e54a 0d3e 5bb6 0abf 8d96 82bd
00000050: feb2 24bd 2a71 b4bd 8cf4 03be b69e a23c
00000060: 41e3 2dbe 6132 003e 686a 58bc 90ba ab3d
00000070: 3242 b3be 4d2d 71be 7736 773e 11ac 2a3e
00000080: ec70 23bd ec0d 9c3e c86a 21bc 4123 a1bd
00000090: d5c5 613d a8a3 22be 9f0f e43c 1039 35be
000000a0: 055f 85be 6fd2 523d 45bd b5be a778 b03d
000000b0: a026 0a3e d138 3b3e 4198 e5be fa64 0fbe
000000c0: d6a2 56be 7f27 1ebe 0c4e 4bbe 4536 e3be
000000d0: b5ec 52be 0c18 d1be e886 e7bc ea53 37bd
000000e0: 212a a43c 9771 01bf 67bc 49bd 894c 6d3e
000000f0: d5b8 103d 6d5e 0b3e ffab 813d 96b1 9cbd
00000100: 8fbf 993d 2618 6839 d88e c5bc c86b 2e3d
00000110: 51c1 e5bd 181f 943d 1f62 babd d5c9 643c
00000120: 768b 76be 37d0 cc3d a027 bbbe e4ee 1dbe
00000130: d2b0 89bc b9df 1bbe 9b7c 56be 4eb7 123d
00000140: bc5b 303d 1cd9 883d d8de 813d f1d9 493e
00000150: 9c6a cb3b 3566 a73d dd70 3b3f d36c 28bd
00000160: b967 8fbc 032c e5bd 2fcb 323e 59f2 7abe
00000170: ccd9 19be ea1d c0be d2d5 3ebe f90e 5e3d
00000180: afd0 ab3c 6225 3cbd b765 aebd 492f b53c
00000190: 526e 12be 4fa6 febd be81 77bd da3d e33d
000001a0: f1db 0a3d db50 3b3c 5458 f2bd 78ac 9bbd
000001b0: f843 573d 3f59 06bf 09bb f63d d667 bdbe
000001c0: b0e1 7abe ed97 733e 8a24 abbe a282 21bd
000001d0: 0ee0 b6bb 564c 1d3d eb3a c0bd 4d8d 263e
000001e0: e241 c23d 3f8d fdbe eb99 b1bd c29d e4bd
000001f0: 6c27 923d 6973 4cbe 07b8 983d 6e30 f33d
00000200: 08d4 0ebe 1974 b63d a9ac a3be bf6d e73d
00000210: 3267 babd 4ac0 7e3e 84d4 f03b 12b9 4ebe
00000220: f556 da3b 47bb a8bc d7f2 423e 5c67 8ebd
00000230: 4b8a 4dbe df32 553d fbd3 d13e 416f 41be
00000240: 5a48 593e 7a19 fb3d d33e 253e 25d9 6e3c
00000250: 7d31 c8bd a1d7 0cbb adc3 3b3e d781 563e
00000260: a511 c3bd 1b14 753e 0582 89bb 4846 813e
00000270: 1192 523c e51e 4fbe fd49 77be 9428 96be
00000280: 484b ef3d d0b4 a13d 568a 8f3c 34ad c4be
00000290: d528 7c3d 6e98 cfbd a293 f6bd 3880 10be
000002a0: fbdf 1fbe a21a e6bc 7ae0 d9bc b37a f7bd
000002b0: 595d 27be b0a7 dbbd b59b 333d f45d 3f3c
000002c0: 3f52 493b 5f0e 18be 90be 1b3d 92e7 64be
000002d0: 8f01 203e 3a84 c3bd 50ad d4be 0f89 b33d
000002e0: 78e6 d1bd 1fe5 87bd 8aca 4bbd de0a 01be
000002f0: 64f9 0d3e f1bf a4bd 4b3c 34be de8f 56be
00000300: 41f8 143d 6654 863d 9bd9 21be 1d16 913e
00000310: e104 0e3e 2bb5 403e 770f 19bc b213 a73c
00000320: c9bc 94bd fd18 5fbe ba96 8b3e 934c b13d
00000330: 1dbb f2bd b8fb 5f3e 8110 a83c 1050 213e
00000340: cd22 053d c2f4 d43d d89f 32be 04d8 a4be
00000350: 92a3 08be b399 b03e 88a8 ac3d ffa8 2b3e
00000360: 370a ab3c dc44 c13b df0a 99bd ef7c 88be
00000370: 7eb2 f53d 3055 60be b35e e0bd ec86 00be
00000380: 17f9 4a3e ea45 1b3e 7b87 7b3d c943 9f3d
00000390: df9d 453e a3e0 703e 9bdd 093e 2cee 7d3e
000003a0: 9f63 e7bd 66f1 7bbe dcef d7bd fb7a 073e
000003b0: 0136 7abd 7169 6d3d 1f89 503d 6e38 fa3b
000003c0: aaa9 263e ee85 3e3d b7f8 4c3d eff3 00be
000003d0: 2a56 64bc 7a79 4c3d c3fe 43bc c8f6 26bd
000003e0: 1893 8bbd 3037 003e 96d8 63be b975 cdbd
000003f0: e410 113e 3304 303e 6528 edbc e6f8 1fbd
0.01639267 -0.07383546 -0.15856592 -0.03380426 0.113182366 0.20694104 -0.12223747 0.0517615
0.20363389 0.12163349 -0.1677312 -0.23211648 0.15930983 -0.06008571 0.17996736 0.036723793
0.12335797 0.13798101 -0.541845 -0.063763715 -0.040209763 -0.08810647 -0.12886256 0.01985107
-0.16981222 0.12519218 -0.013208963 0.08385193 -0.3501144 -0.23552437 0.2414187 0.166672
-0.039902613 0.30479372 -0.009852119 -0.07868052 0.055120308 -0.15882742 0.02783948 -0.17697549
-0.26049057 0.051470216 -0.35495964 0.086167626 0.13491297 0.18283392 -0.44842723 -0.14003363
-0.20960554 -0.15444754 -0.19853991 -0.44377342 -0.20598109 -0.4083866 -0.02826257 -0.04475776
0.02003962 -0.5056395 -0.04925194 0.23173727 0.03533252 0.1361024 0.06331634 -0.07651059
0.0750724 0.0002213424 -0.024115965 0.042583257 -0.11218513 0.07232493 -0.09100746 0.013964136
-0.24076638 0.10000651 -0.3655367 -0.15423161 -0.016807947 -0.15222062 -0.2094597 0.035819344
0.043056235 0.06682035 0.06341332 0.19712044 0.006207777 0.08173791 0.7321909 -0.041119408
-0.017505514 -0.11190035 0.17460321 -0.24506511 -0.15024489 -0.37522823 -0.18636253 0.054213498
0.020973532 -0.04593409 -0.08515494 0.022117274 -0.14299896 -0.124340646 -0.060426466 0.110957816
0.03390116 0.011432852 -0.118332535 -0.07601255 0.052555054 -0.5247993 0.12047393 -0.36993283
-0.24500155 0.23788424 -0.33426315 -0.03943122 -0.0055809086 0.038402878 -0.09386238 0.1626484
0.094852224 -0.49521825 -0.08671936 -0.111629024 0.071364254 -0.199659 0.074569754 0.118744716
-0.13948071 0.089088626 -0.31967667 0.11300229 -0.09101714 0.2487804 0.0073495526 -0.20187786
0.006663198 -0.020597113 0.19037949 -0.06953308 -0.20072286 0.052050468 0.4098204 -0.18890096
0.21219006 0.12260719 0.16137247 0.0145781385 -0.09775064 -0.002149083 0.18336363 0.20947967
-0.0952485 0.23933451 -0.0041964077 0.25248933 0.012852208 -0.20226629 -0.24149318 -0.29327834
0.11684281 0.07895815 0.017522018 -0.38413393 0.061562378 -0.101364955 -0.120398775 -0.14111412
-0.15612786 -0.028088871 -0.026596297 -0.1208395 -0.16344203 -0.10725343 0.043849666 0.011680115
0.0030719189 -0.14849232 0.03802353 -0.22353962 0.15625595 -0.095467046 -0.41538477 0.08766376
-0.102490366 -0.06635498 -0.049753703 -0.12601802 0.13864666 -0.080444224 -0.17601125 -0.20953318
0.036369566 0.065590665 -0.15805666 0.28337184 0.13869049 0.1881911 -0.009342066 0.020395134
-0.072625704 -0.21786876 0.27263433 0.086571835 -0.11852095 0.21873367 0.020515682 0.15753198
0.03250389 0.10398246 -0.17443788 -0.32196057 -0.13343647 0.34492263 0.08430582 0.16763686
0.020878894 0.0058981013 -0.074727766 -0.26657817 0.11996935 -0.21907496 -0.109555624 -0.12551469
0.19821583 0.15163389 0.0614085 0.07776601 0.19298504 0.23523192 0.13463442 0.24797887
-0.11298298 -0.24603805 -0.105437964 0.13230507 -0.06108666 0.057961885 0.05091202 0.0076361215
0.16275659 0.046514444 0.05004188 -0.12593053 -0.013936559 0.049920537 -0.011962595 -0.040762693
-0.06815165 0.12521052 -0.2225059 -0.100322194 0.141666 0.17189102 -0.028949926 -0.039055727

fc2.bias f4 [64]
00000000: 1453 18bc 1381 89bd 28ce a73e 82f3 4c3d
00000010: 45d3 853d b90c 01be cd28 86bc e437 883d
00000020: 56b5 bdbd 5f6d 34be 73db 8bbc 1a60 223d
00000030: d4e8 9ebd b448 09be 8520 7b3d 5adf eb3c
00000040: 32b6 e5bc 2aa0 e3b9 7438 f0bd aa13 8abc
00000050: e68f 443d 986c 823c 7425 a6bd c0e6 ffba
00000060: 7a41 9bbd e1c2 7dbd 6e70 fd3e fcaf 9e3d
00000070: 5489 2abd 98c3 c6bd e43d 53bd c020 a33e
00000080: adfe d8bc 0f43 313c f471 813e c3bb b9bd
00000090: 3a52 003b 3712 593d 2a45 263c c068 e03d
000000a0: 485b fe3d 0530 56bd b75f 6fbd 27fb 653e
000000b0: cc15 e03e 8f1e b83d 2cd9 a63d ebab 14be
000000c0: 7e6c 403d f6b2 c3bd 740f fcbc c655 78bd
000000d0: fc2a 15bc 635f bc3e 9f2f a63e 0188 b73e
000000e0: 806b eabd 017b d63e 1b91 a03e c0c3 933c
000000f0: 05eb bc3d d3d5 0abe b7ea b5bd 898f 8abc
-0.009297151 -0.06714072 0.32774472 0.050036915 0.06534437 -0.1260251 -0.016376877 0.06651285
-0.09263103 -0.17619847 -0.017072415 0.03964243 -0.07759252 -0.1340664 0.06131031 0.028793026
-0.028040979 -0.00043416145 -0.117295176 -0.01685508 0.047988795 0.015920922 -0.08112612 -0.0019523725
-0.07580848 -0.06195343 0.4949984 0.0774841 -0.041634873 -0.09705275 -0.051572695 0.31860924
-0.026488626 0.010819211 0.25282252 -0.09069016 0.001958026 0.052995887 0.010148326 0.109574795
0.12419754 -0.05229189 -0.05844089 0.22459088 0.4376663 0.089902036 0.08146891 -0.14518707
0.046978466 -0.095556185 -0.030769087 -0.060628675 -0.009104487 0.36791524 0.32458207 0.3584595
-0.11446285 0.4189072 0.31360707 0.018037677 0.09224514 -0.1355813 -0.08882659 -0.016914146

fc3.weight f4 [4, 64]
00000000: 8aed a53e aa7b 333b 346c 0d3e 837d 333e
00000010: e65d 7f3e ab13 53be 1799 ad3d b848 29be
00000020: ab92 cebc f0f2 81be 599f f33d 009e 093e
00000030: e7b8 34bd 470d 703d 3ee5 223d 372c 933e
00000040: 31b5 a1be 1b51 7b3e 052c 8cbe bbfd 043f
00000050: d4e3 353e fb74 263e 1d68 f8bd 0e3a 0e3e
00000060: d4a0 abbe 51f0 34be b6b2 5c3e 118f 713e
00000070: 43dc 5a3e 233a 9fbe 7544 42be bc4a 143e
00000080: 5fde 403e 22f8 23bd 3c92 053e 74b4 e43d
00000090: 26b0 93be e924 7a3e 424d dcbe cc59 b03d
000000a0: 0654 213e fcc0 733c eeb2 2cbe ddba 1b3e
000000b0: df7b c53d 8f23 313c 40d3 8b3e b951 16be
000000c0: 0973 323e 719c aebb 2361 07be 1216 51bb
000000d0: b6f7 a0bd 405d 0d3e 2b79 ef3d dfbe 003e
000000e0: 7f3b afbe 2701 1f3e cd89 fd3d db76 c93d
000000f0: 291b b93e 9bc0 9b3d bc18 e93c 88df 743d
00000100: a872 ca3e 4498 00bc 2666 cc3d 0674 073e
00000110: 702a 983e cbee 1bbe 3ece 113e c3c9 ebbd
00000120: 49a0 dbbb 66b0 73bd b695 1fbd 5e8c 463e
00000130: e524 94bd f581 4cbe 1fd7 7d3d a799 973e
00000140: 83c8 37be cdc5 b93e 8ada 4abe faf6 e83e
00000150: 3fa6 f93d 7584 0ebf c856 4ebe 1223 8d3d
00000160: f545 01bd db88 67be 93a0 433e 2070 ac3e
00000170: 8d1d 8f3e ad5f 363d 9739 60be 3c3c 3d3d
00000180: f44b f33d ac3b dabe 0d89 2a3d 7b30 3f3e
00000190: 31d5 09be 1ae1 af3e 6908 093d 2d10 4d3d
000001a0: 708f 033e 6ff4 8bbe 8f2a 45be f139 113e
000001b0: 706f 433e 5c8f fd3b c479 663e 039e e8bd
000001c0: e0dc 633e ca50 06be ff68 f93c 8f1a dd3d
000001d0: 2c14 d0be eec0 eb3d 1c6e 0c3e d91a 813d
000001e0: 5eaf 10be 3695 0e3e 037b d33d a675 8a3b
000001f0: 6552 8f3e dfe1 d4bd ece3 16bd 85bb 9e3e
00000200: 1bf7 d53e 861e 1a3e d3c1 903d fd30 483d
00000210: 0f41 dd3e e9ab 413e acde 39be f437 9f3e
00000220: 8712 a7bd 4531 b9be a641 b93b c412 183e
00000230: 5519 a1be a98b d2be 41c6 883d 12ec 993d
00000240: 75fc afbe 350e 11be e772 923d 32c3 983e
00000250: 44fc 6f3e 707c 6bbe 2d15 b4be 357e 303d
00000260: ca2e 65bd 0285 b6be e693 373e 5838 623e
00000270: 75aa ae3d d75f 303c c9b5 a5be 60f6 993d
00000280: 1dbc 09be 02cd bf3c f836 603c c7f9 c73e
00000290: e0ec ecbd 9091 183f a4f5 4fbe 4a4a 603e
000002a0: cf97 413e 7d12 6dbe 22cf 1cbe 7342 813d
000002b0: 02a6 113e ab97 203e 36ef 9b3c 9a1b aebe
000002c0: 287b 9a3e 8b96 073e 422c dcbe 2e98 8a3e
000002d0: 73f0 5a3e 3976 493e 8df3 8b3c f295 0a3e
000002e0: 7c1d 24be c41a 543e 4d48 643d 9c71 58be
000002f0: 61a9 ab3e 0a17 c63e 4100 493e f8ca 423d
00000300: 49de 3a3e bcc6 9cbe 7070 b63d ec0c 8b3e
00000310: 7148 623e 8f71 fdbc 2f41 83be 7244 abbe
00000320: d423 cbbe bf5b 4a3d aec0 6dbd a0d2 383e
00000330: c404 b2be 1227 7bbd b850 303e aea3 8d3e
00000340: 52d0 443e 86d4 113f a071 a5be afa8 023f
00000350: 645a 973e 3db9 843e 9add 99be c32e ab3e
00000360: 3455 45be 30d6 97bd ca41 463e 9fb4 6d3e
00000370: b4bf f43e df1c f3be 354a 3ebe 2d96 273e
00000380: 8a13 983c 2236 c13e b907 2b3d 2354 603d
00000390: 47f5 1dbf 97f3 b5bd 7a0d a63e e24c 423e
000003a0: 9c40 ee3d 6987 06bf bcce 63be cc2f a43c
000003b0: fa33 413e d6a8 02bf fd37 bf3c 166c 633d
000003c0: c009 a53d 7ae7 a13e e968 1a3e 86d6 8d3d
000003d0: 8635 f53d a66e b23d ee78 123e 7110 0a3e
000003e0: f705 1fbe 263b ec3d ec22 803d 242c 7cbe
000003f0: d291 773e 439c a5be 44f7 83be 932b 673e
0.3240779 0.0027386942 0.13810807 0.17528348 0.24938163 -0.20612971 0.08476465 -0.16531646
-0.025216421 -0.2538066 0.118956275 0.13439178 -0.04412165 0.058606412 0.039769404 0.2874467
-0.3158355 0.24542658 -0.27377334 0.5194966 0.17762691 0.16255562 -0.12129233 0.13889334
-0.3352114 -0.17669798 0.21552548 0.23589732 0.21373086 -0.31099042 -0.18971427 0.14481634
0.18834828 -0.04003156 0.13044065 0.11167231 -0.28845328 0.24428143 -0.43027693 0.086108774
0.15754709 0.014877554 -0.16865131 0.15208001 0.09642767 0.0108117005 0.27309608 -0.14679612
0.17426695 -0.005328708 -0.13220648 -0.0031904024 -0.07859747 0.13805103 0.11693033 0.12572812
-0.3422508 0.15527783 0.12379799 0.09837123 0.36153534 0.07605096 0.028454177 0.05978349
0.395406 -0.007848803 0.09980421 0.13227853 0.29719877 -0.15227811 0.14238831 -0.11513092
-0.006702457 -0.0594944 -0.038961135 0.19389483 -0.072335996 -0.1997145 0.061972734 0.29609415
-0.17947583 0.36283723 -0.19809929 0.45500928 0.12189912 -0.55670863 -0.20150292 0.06891455
-0.031560857 -0.226108 0.19104223 0.33679295 0.27952233 0.044524837 -0.21896969 0.046200022
0.11879721 -0.4262365 0.041634608 0.18670838 -0.13460232 0.34351426 0.033455286 0.050064255
0.12847686 -0.27334926 -0.19254516 0.14182259 0.19085479 0.007738037 0.22507387 -0.11358263
0.22252226 -0.13116756 0.030445574 0.10796081 -0.4064039 0.11511408 0.13713878 0.06303949
-0.14129397 0.13924107 0.10326197 0.0042254506 0.2799255 -0.10394644 -0.036838457 0.3100244
0.4179009 0.15050706 0.07068219 0.048874844 0.43213698 0.18913235 -0.18151349 0.31097376
-0.08157831 -0.36170402 0.005653578 0.14850909 -0.3146464 -0.41122177 0.06678439 0.0751573
-0.34372297 -0.14165576 0.07150822 0.29836422 0.23436075 -0.22996688 -0.35172406 0.04308911
-0.055952825 -0.35648352 0.17927513 0.22091806 0.08528606 0.0107650375 -0.32365254 0.075176954
-0.13450666 0.023413185 0.013684981 0.39057752 -0.11568618 0.5959711 -0.20308548 0.21903339
0.18905567 -0.23151584 -0.1531339 0.06311502 0.14223483 0.15682857 0.019034963 -0.34005433
0.30172086 0.13241021 -0.43002516 0.2706923 0.21380787 0.19674005 0.017083907 0.13533762
-0.16026872 0.20713335 0.055733014 -0.21137089 0.33527663 0.38689452 0.19629003 0.047556847
0.18248858 -0.30620372 0.089081645 0.27158296 0.22097947 -0.030937938 -0.2563567 -0.33450657
-0.39675772 0.049403902 -0.05804508 0.18049097 -0.3476926 -0.061316557 0.17218292 0.2766394
0.19220093 0.5696491 -0.32313251 0.5103864 0.2956115 0.25922576 -0.3005188 0.33434114
-0.19270784 -0.074139 0.19361034 0.23213433 0.47802508 -0.47482964 -0.18582995 0.16365881
0.018564004 0.37736613 0.04175541 0.05476774 -0.6170239 -0.08884352 0.32432157 0.18974641
0.11633417 -0.5255037 -0.22246832 0.020042323 0.18867484 -0.51038873 0.023342127 0.055523
0.080585 0.31621915 0.15079083 0.06925683 0.119730994 0.08712511 0.14303944 0.13482834
-0.15529619 0.11534719 0.06256661 -0.24626213 0.2417672 -0.3234578 -0.25774586 0.22575216

fc3.bias f4 [4]
00000000: 0a66 513e e974 6a3e 338d a23e 977d 993e
0.20449081 0.2289616 0.3174835 0.2997863
